…
15508845659654389667"}},"colab":{"base_uri":"https://localhost:8080/","height":956}},"source":["model, history = regression_network()"],"execution_count":0,"outputs":[{"output_type":"stream","text":["Model: \"model\"\n","_________________________________________________________________\n","Layer (type)                 Output Shape              Param #   \n","=================================================================\n","input_1 (InputLayer)         [(None, 32, 600, 1)]      0         \n","_________________________________________________________________\n","conv2d (Conv2D)              (None, 32, 600, 16)       416       \n","_________________________________________________________________\n","activation (Activation)      (None, 32, 600, 16)       0         \n","_________________________________________________________________\n","conv2d_1 (Conv2D)            (None, 32, 600, 32)       12832     \n","_________________________________________________________________\n","activation_1 (Activation)    (None, 32, 600, 32)       0         \n","_________________________________________________________________\n","max_pooling2d (MaxPooling2D) (None, 16, 300, 32)       0         \n","_________________________________________________________________\n","conv2d_2 (Conv2D)            (None, 16, 300, 64)       51264     \n","_________________________________________________________________\n","activation_2 (Activation)    (None, 16, 300, 64)       0         \n","_________________________________________________________________\n","max_pooling2d_1 (MaxPooling2 (None, 8, 150, 64)        0         \n","_________________________________________________________________\n","flatten (Flatten)            (None, 76800)             0         \n","_________________________________________________________________\n","dense (Dense)                (None, 80)                6144080   \n","_________________________________________________________________\n","activation_3 (Activation)    (None, 80)                0         \n","_________________________________________________________________\n","dropout (Dropout)            (None, 80)                0         \n","_________________________________________________________________\n","dense_1 (Dense)              (None, 1)                 81        \n","=================================================================\n","Total params: 6,208,673\n","Trainable params: 6,208,673\n","Non-trainable params: 0\n","_________________________________________________________________\n","None\n","\n","* Training the compiled network *\n","\n","Epoch 1/5\n","169/169 [==============================] - 5s 27ms/step - loss: 0.0945 - val_loss: 0.003
…
654389667"}},"colab":{"base_uri":"https://localhost:8080/","height":1000}},"source":["model_r, history_r = regression_network_rev()"],"execution_count":0,"outputs":[{"output_type":"stream","text":["Model: \"model_6\"\n","_________________________________________________________________\n","Layer (type)                 Output Shape              Param #   \n","=================================================================\n","input_7 (InputLayer)         [(None, 32, 600, 1)]      0         \n","_________________________________________________________________\n","conv2d_23 (Conv2D)           (None, 32, 600, 16)       416       \n","_________________________________________________________________\n","activation_29 (Activation)   (None, 32, 600, 16)       0         \n","_________________________________________________________________\n","conv2d_24 (Conv2D)           (None, 32, 600, 32)       12832     \n","_________________________________________________________________\n","activation_30 (Activation)   (None, 32, 600, 32)       0         \n","_________________________________________________________________\n","max_pooling2d_17 (MaxPooling (None, 16, 300, 32)       0         \n","_________________________________________________________________\n","conv2d_25 (Conv2D)           (None, 16, 300, 64)       51264     \n","_________________________________________________________________\n","activation_31 (Activation)   (None, 16, 300, 64)       0         \n","_________________________________________________________________\n","max_pooling2d_18 (MaxPooling (None, 8, 150, 64)        0         \n","_________________________________________________________________\n","conv2d_26 (Conv2D)           (None, 8, 150, 128)       204928    \n","_________________________________________________________________\n","activation_32 (Activation)   (None, 8, 150, 128)       0         \n","_________________________________________________________________\n","max_pooling2d_19 (MaxPooling (None, 4, 75, 128)        0         \n","_________________________________________________________________\n","flatten_6 (Flatten)          (None, 38400)             0         \n","_________________________________________________________________\n","dense_12 (Dense)             (None, 250)               9600250   \n","_________________________________________________________________\n","activation_33 (Activation)   (None, 250)               0         \n","_________________________________________________________________\n","dropout_6 (Dropout)          (None, 250)               0         \n","_________________________________________________________________\n","dense_13 (Dense)             (None, 1)                 251       \n","=================================================================\n","Total params: 9,869,941\n","Trainable params: 9,869,941\n","Non-trainable params: 0\n","_________________________________________________________________\n","None\n","\n","* Training the compiled network *\n","\n","Epoch 1/5\n","169/169 [==============================] - 5s 30ms/step - loss: 0.0546 - val_loss: 7.0299
…
